03-파이토치로_구현하는_ANN/model.pt (torch, 1807 bytes, 3 tensors)

linear_1.weight f4 [5, 2]
00000000: feb2 a4bf 80ad c4bf f720 db3f 1085 bebf
00000010: 655e dd3f 9fd4 be3f a57d a3bf 54f8 be3f
00000020: 5ed0 06bf 7852 f4be
-1.2867124 -1.5365448 1.7119435 -1.4884357 1.7294432 1.4908637 -1.2772719 1.4919534
-0.52661693 -0.4771917

linear_1.bias f4 [5]
00000000: 3087 983e 7fe1 91be 0f3b 99be bd6b 9b3e
00000010: 9d06 dcbe
0.2979064 -0.28492352 -0.2992787 0.30355635 -0.42973796

linear_2.weight f4 [1, 5]
00000000: 3c08 f1bf 4c96 0a40 da01 05c0 43de e73f
00000010: 8c74 97be
-1.8830638 2.1654234 -2.078238 1.8114704 -0.29581106
