03-파이토치로_구현하는_ANN/model.pt (torch, 1807 bytes, 3 tensors)

linear_1.weight f4 [5, 2]
1.345426 1.3565995 0.043523133 0.21860391 -1.2945083 1.9069971 -0.6171668 0.90974957
1.8788126 -1.0250818
00000000: eb36 ac3f 0da5 ad3f 5045 323d b4d9 5f3e
00000010: 73b2 a5bf 7b18 f43f a5fe 1dbf 59e5 683f
00000020: ee7c f03f e135 83bf

linear_1.bias f4 [5]
-0.19549075 -0.66791064 -0.4314389 -0.20527045 -0.0473102
00000000: ba2e 48be 31fc 2abf 8fe5 dcbe 6b32 52be
00000010: 57c8 41bd

linear_2.weight f4 [1, 5]
-1.8424081 0.26639313 2.158438 1.0681218 2.0782623
00000000: 07d4 ebbf ae64 883e d923 0a40 37b8 883f
00000010: 4002 0540
